Weather Forecast/model.pth (torch, 2903 bytes, 5 tensors)

weight f4 [5, 4]
0	0x3ea5f480	0.324131
1	0x3f1c5e58	0.6108146
2	0x3ee20e19	0.4415138
3	0x3eecc50e	0.4624409
4	0xbd71b616	-0.05901154
5	0xbdb33608	-0.0875054
6	0xbf471225	-0.7776206
7	0x3e94391a	0.28949815
8	0x3eda09f3	0.42585716
9	0xbe7053b4	-0.2346943
10	0x3f447581	0.76741797
11	0x3dc8a1d6	0.09796493
12	0x3eb5add7	0.35484192
13	0x3d65db58	0.056117386
14	0x3e698196	0.2280334
15	0xbdabd4d2	-0.08390202
16	0x3ee2645d	0.44217196
17	0xbdf7f2de	-0.1210687
18	0xbf550b81	-0.8322068
19	0x3dfb050d	0.12256823

bias f4 [5]
0	0xbe5d0a8f	-0.21586059
1	0xbd96e0cb	-0.073670946
2	0xbe4662f1	-0.1937368
3	0x3ea322c1	0.31862453
4	0xbed373c1	-0.4129925

weight f4 [3, 5]
0	0xbe531e40	-0.20617008
1	0xbe015006	-0.12628183
2	0xbe89ace6	-0.26889724
3	0x3d2ce3c8	0.042209417
4	0xbee226f7	-0.44170353
5	0x3ed6ca71	0.41951326
6	0xbec08401	-0.3760071
7	0x3e9f44af	0.3110709
8	0x3d555fa1	0.052093152
9	0xbe13e255	-0.14441808
10	0x3e8558c1	0.26044276
11	0x3d860f16	0.06545846
12	0x3eca5431	0.39517358
13	0x3d900514	0.070322186
14	0xbe11a46d	-0.1422288

bias f4 [3]
0	0x3df615e8	0.12015897
1	0xbdda2dee	-0.10653292
2	0x3e316501	0.17323686

weight f4 [1, 3]
0	0x3f03f5ea	0.5154711
1	0x3eb34347	0.35012266
2	0xbe7ba91f	-0.24576233
